godot_masterthesis/fixed.onnx (onnx, 24270 bytes, 6 tensors)

mlp_extractor.policy_net.0.weight f4 [64, 20]
-0.07731031 -0.025779586 -0.44838744 0.3546755 0.037873548 0.05071938 0.10565013 0.06203554
0.03490728 0.34214002 0.025260476 0.25092256 0.026175208 -0.31056073 -0.26438555 0.011671048
-0.07593574 0.00862275 0.2584679 0.017662678 -0.15431817 0.05864175 0.29102856 0.12311994
0.08620273 0.3825799 0.08683142 -0.17191435 0.19892804 0.058270488 -0.15219225 -0.09850328
-0.16588846 0.058750235 -0.41591302 0.14591116 -0.29196426 0.05088531 0.04771151 -0.067879595
0.08998525 0.040388998 -0.12574942 -0.06648835 -0.23753202 -0.11880648 0.14677277 0.0976437
-0.19569351 0.018502941 0.18502156 -0.071836956 -0.037563816 0.32882968 -0.16205797 0.20263752
0.031604886 -0.043031067 0.29176795 0.083384745 -0.49534407 -0.01426273 0.13100973 0.08774585
0.1581912 -0.06001803 0.0012744503 0.38179052 0.013444866 -0.06221577 0.09314762 -0.28195065
-0.2033914 -0.12262216 0.2340402 0.15882385 0.19119789 -0.04139999 0.019943945 0.21342227
0.32170194 0.06707366 0.106619865 0.29940492 -0.0803059 -0.04454089 -0.13892464 -0.21008879
0.0039385785 -0.14339697 -0.17204235 -0.13822755 -0.05541714 0.25267503 -0.28447402 -0.37545106
-0.00959822 0.3866916 -0.30450568 0.22572687 -0.24120685 0.13262166 0.020637369 -0.21841143
0.29283383 0.17932953 -0.08555498 -0.026251113 0.18599626 -0.10303802 0.12567784 0.12938368
-0.22602053 0.027824234 -0.13929157 -0.026176527 -0.08860831 0.08356861 -0.3382809 -0.05812578
0.27039889 -0.2755516 -0.034317758 -0.13633016 0.37220955 0.23638745 0.15309949 0.08583427
-0.007607203 -0.21437198 0.08701245 0.074352935 -0.28964213 0.24655953 -0.11145659 0.005730468
-0.064732715 -0.1378879 -0.28226197 -0.25668687 -0.053984664 0.2666607 0.115442015 -0.111917995
-0.10724301 -0.05711113 0.1549971 -0.10989631 -0.15743956 0.10686706 0.16148162 -0.14393899
-0.11465369 0.07946623 0.11503266 0.25162417 -0.021912541 0.03283217 0.3328797 -0.25912473
-0.19595408 0.018969882 0.28314143 0.036094565 0.06671517 -0.015567759 0.113622375 -0.10506487
-0.011704769 0.13973108 0.027741538 0.013983729 -0.19481474 -0.11610644 -0.14916751 -0.008780182
0.16228718 -0.07127148 -0.26531655 -0.27269098 -0.11412036 0.22014341 -0.053620514 0.16122021
0.27895024 -0.3723555 0.4784693 -0.03114829 0.12803555 0.112043634 -0.10088364 -0.30434495
-0.080022395 -0.006056029 0.10239296 -6.947465e-05 0.24622226 0.02457986 0.055350818 0.31409425
-0.032479957 0.09167792 0.1329076 0.047650173 0.062454883 0.43600255 -0.015908062 -0.03376152
-0.042375226 -0.11028811 -0.05337032 -0.20154093 -0.12248347 -0.0349923 -0.13601217 -0.1267837
0.3028144 -0.28130478 -0.26101676 0.04327508 0.07591745 0.08803999 0.14835912 -0.37741938
0.30218667 0.05685112 -0.10772704 -0.14861937 0.07139226 0.23098296 0.010188619 -0.07570408
-0.166713 -0.015348161 -0.25192174 -0.0052303686 -0.056691304 -0.07321379 0.072722435 0.3421828
-0.23714015 -0.06838442 -0.19703296 -0.26890978 -0.08731828 0.009885675 0.07847034 0.2359901
-0.19843628 -0.061540093 0.022517012 -0.21900608 0.31447873 0.18740086 -0.35061356 0.22121635
00000000: de54 9ebd b62f d3bc 0a93 e5be 0798 b53e
00000010: 4b21 1b3d 20bf 4f3d 185f d83d fa18 7e3d
00000020: f0fa 0e3d fa2c af3e 0fef ce3c ec78 803e
00000030: 646d d63c d101 9fbe 8b5d 87be ec37 3f3c
00000040: 3284 9bbd 6f46 0d3c e855 843e 52b1 903c
00000050: 9505 1ebe 5532 703d b201 953e 4f26 fc3d
00000060: 0f8b b03d 83e1 c33e acd4 b13d 510a 30be
00000070: cbb3 4b3e 09ad 6e3d 49d8 1bbe 16bc c9bd
00000080: aade 29be 16a4 703d 8df2 d4be bc69 153e
00000090: 577c 95be 1d6d 503d 256d 433d 7504 8bbd
000000a0: 304a b83d ef6e 253d 75c4 00be 0b2b 88bd
000000b0: 983b 73be d050 f3bd 9a4b 163e 6cf9 c73d
000000c0: e163 48be 7b93 973c 4b76 3d3e 411f 93bd
000000d0: 84dc 19bd 5d5c a83e 86f2 25be 3680 4f3e
000000e0: 2074 013d 5841 30bd 9c62 953e 9fc5 aa3d
000000f0: bd9d fdbe 3aae 69bc 6a27 063e 19b4 b33d
00000100: e0fc 213e 77d5 75bd 750b a73a 0c7a c33e
00000110: db47 5c3c f7d5 7ebd 2ec4 be3d d65b 90be
00000120: d645 50be 5421 fbbd 3ca8 6f3e b8a2 223e
00000130: 61c9 433e 0993 29bd 7c61 a33c 5e8b 5a3e
00000140: 1eb6 a43e ea5d 893d 845b da3d 9a4b 993e
00000150: 6b77 a4bd 8270 36bd 4342 0ebe 8421 57be
00000160: 310f 813b a8d6 12be df2b 30be 868b 0dbe
00000170: 15fd 62bd 9f5e 813e 94a6 91be 1f3b c0be
00000180: da41 1dbc 71fc c53e 2be8 9bbe f224 673e
00000190: eefe 76be f9cd 073e b30f a93c 3fa7 5fbe
000001a0: 51ee 953e 29a2 373e 7337 afbd 930c d7bc
000001b0: ce75 3e3e 9905 d3bd b1b1 003e 287d 043e
000001c0: ed71 67be a6ef e33c 73a2 0ebe 2870 d6bc
000001d0: 4678 b5bd 0526 ab3d 2733 adbe 4c15 6ebd
000001e0: b971 8a3e 1915 8dbe c790 0cbd 229a 0bbe
000001f0: 4092 be3e 8d0f 723e 1dc6 1c3e e1c9 af3d
00000200: d845 f9bb 5484 5bbe 9533 b23d 5a46 983d
00000210: f94b 94be 1a7a 7c3e 5a43 e4bd a6c6 bb3b
00000220: 9692 84bd 7c32 0dbe a484 90be 766c 83be
00000230: 061f 5dbd c087 883e dd6c ec3d 4335 e5bd
00000240: 39a2 dbbd 5ced 69bd 8fb7 1e3e 5111 e1bd
00000250: d637 21be 1edd da3d 705b 253e be64 13be
00000260: 8ecf eabd 31bf a23d 3e96 eb3d e2d4 803e
00000270: ee81 b3bc 077b 063d 356f aa3e ffab 84be
00000280: 30a8 48be ba66 9b3c eaf7 903e e5d7 133d
00000290: f7a1 883d ea0f 7fbc d9b2 e83d 402c d7bd
000002a0: 5cc5 3fbc aa15 0f3e 3942 e33c 031c 653c
000002b0: 847d 47be 37c9 edbd 5ebf 18be c1da 0fbc
000002c0: 9c2e 263e c8f6 91bd 92d7 87be 279e 8bbe
000002d0: efb7 e9bd 466d 613e 2fa1 5bbd e916 253e
000002e0: 91d2 8e3e 61a5 bebe eef9 f43e b32a ffbc
000002f0: c01b 033e 2277 e53d 159c cebd 1ad3 9bbe
00000300: c8e2 a3bd a771 c6bb 66b3 d13d ebb2 91b8
00000310: b021 7c3e b45b c93c 8ab7 623d f6d0 a03e
00000320: b409 05bd a2c1 bb3d ee18 083e d42c 433d
00000330: b1d0 7f3d ba3b df3e a051 82bc 8549 0abd
00000340: a591 2dbd bcde e1bd d69a 5abd bf60 4ebe
00000350: 9dd8 fabd 1654 0fbd c646 0bbe 96d3 01be
00000360: 7d0a 9b3e 2e07 90be fda3 85be 3641 313d
00000370: 9c7a 9b3d 4f4e b43d 74eb 173e 1d3d c1be
00000380: 36b8 9a3e b8dc 683d ff9f dcbd ad2f 18be
00000390: 1b36 923d cc86 6c3e 2aee 263c be0a 9bbd
000003a0: d0b6 2abe da76 7bbc e3fb 80be 8363 abbb
000003b0: 2435 68bd 1df1 95bd 80ef 943d 9532 af3e
000003c0: ded4 72be 210d 8cbd 02c3 49be 8bae 89be
000003d0: edd3 b2bd 87f7 213c 0fb5 a03d 64a7 713e
000003e0: e132 4bbe 7711 7cbd 9975 b83c 2143 60be
000003f0: 5b03 a13e 03e6 3f3e 9f83 b3be 8a86 623e

mlp_extractor.policy_net.0.bias f4 [64]
-0.007721727 0.009508268 0.008503861 -0.07128849 0.06580184 0.0728524 0.08521244 0.002858592
0.06977226 -0.06583797 0.019036472 -0.024858853 0.047158834 -0.09493353 0.008146941 0.023386355
-0.073925994 0.0063375444 0.019242719 0.025729528 0.013969643 0.026907505 -0.03753051 0.044754438
0.040348988 0.03328705 0.056325715 0.028191343 0.05376937 -0.01057782 0.01634035 0.01525893
-0.022519566 -0.011162294 0.029143222 -0.013613828 -0.05898146 -0.04909834 0.027088918 0.037093125
-0.061380796 -0.072035365 -0.010893735 -0.011772586 0.032940276 0.0059763007 0.094340816 0.07299438
0.0068974798 0.001043387 -0.007773688 0.025231592 0.0077965483 0.011237316 0.067249455 0.03759576
-0.0031490764 0.037651964 -0.033003785 0.010658909 0.009828662 0.07382927 -0.025726572 0.023138491
00000000: 8a06 fdbb 91c8 1b3c c753 0b3c b3ff 91bd
00000010: 1dc3 863d a433 953d dc83 ae3d 3757 3b3b
00000020: c2e4 8e3d 0fd6 86bd 60f2 9b3c cba4 cbbc
00000030: 9f29 413d 836c c2bd bf7a 053c be94 bf3c
00000040: 8366 97bd 2dab cf3b e8a2 9d3c bbc6 d23c
00000050: eee0 643c 216d dc3c 98b9 19bd 6e50 373d
00000060: fb44 253d 0058 083d cbb5 663d 88f1 e63c
00000070: 453d 5c3d 984e 2dbc 33dc 853c 9700 7a3c
00000080: f47a b8bc 0ee2 36bc c4bd ee3c 890c 5fbc
00000090: 8b96 71bd 571b 49bd 94e9 dd3c f6ee 173d
000000a0: 6e6a 7bbd 4787 93bd a37b 32bc cee1 40bc
000000b0: 62ec 063d d8d4 c33b c235 c13d 147e 953d
000000c0: 4104 e23b 42c2 883a 6cba febb 7cb2 ce3c
000000d0: 307a ff3b b81c 383c 15ba 893d 03fe 193d
000000e0: bc60 4ebb f238 1a3d fa2e 07bd b4a2 2e3c
000000f0: 6508 213c cd33 973d 88c0 d2bc ef8c bd3c

mlp_extractor.policy_net.2.weight f4 [64, 64]
-0.059549928 0.013167489 0.11913059 0.1452832 -0.25129592 -0.2024708 -0.041018166 -0.29028404
-0.0081426855 -0.06972178 -0.24825947 0.32045817 -0.16561626 0.43660966 0.3522242 0.17397562
0.33856452 0.1861738 -0.14221208 -0.107533745 -0.051250078 -0.29989657 0.35092098 0.3021049
-0.25522938 0.024428956 0.1409738 -0.28147352 -0.17985013 0.3377054 0.12726986 -0.2913415
-0.15879376 0.018252939 0.16778238 0.14371404 0.08985986 0.3912074 -0.3552986 -0.09629965
0.07554955 0.23417331 0.1893456 -0.023879325 0.16153587 -0.3178802 -0.11529465 -0.005062649
0.04367512 -0.09550695 0.054037113 -0.08560257 -0.033515424 -0.24455135 -0.021119345 -0.0018749209
-0.09082724 0.01947815 0.22101288 -0.03170733 -0.03984746 0.09928684 -0.042003885 -0.118334085
-0.2008373 0.09701516 -0.2525329 0.094710805 -0.01411704 -0.13892153 -0.068729125 0.049694568
-0.15505688 0.10071567 0.26894042 -0.2830273 -0.11593239 -0.0004881974 0.28768697 0.03925457
0.041569203 0.31914005 0.15259558 0.12569833 -0.0064446647 -0.19792654 0.15153454 0.23133485
0.15373549 0.007401663 0.16599551 0.1348686 0.006269758 0.033905935 0.11990235 0.09408838
0.07329365 -0.030088177 -0.2044415 0.18546791 0.035113793 0.082476854 -0.12188935 0.29326034
-0.35405624 -0.067926064 0.1475092 0.17563306 -0.44138947 -0.06115835 -0.061205514 -0.24472387
-0.07308893 0.17029764 -0.052314717 0.06465399 0.37851316 -0.08253967 -0.17281596 0.22934252
0.29679748 -0.2166773 -0.24050407 0.098655075 -0.2069339 0.13456562 0.21858469 -0.010643396
-0.15641256 0.12268594 -0.10448891 0.12629558 -0.15536375 -0.018327417 0.0017469686 0.31143507
0.014459758 0.024686884 0.14400111 0.32211578 0.31713438 0.05565907 -0.09346934 0.05037099
0.19534822 -0.059463542 -0.10611727 -0.1620141 -0.18426183 -0.16967894 0.27481282 -0.07247602
0.038483147 0.14109744 -0.16686983 0.032796934 -0.17723076 -0.20254435 -0.36787808 0.113123424
-0.15730505 0.32936367 -0.01003133 -0.22088742 0.051546954 -0.13582383 0.13127357 0.0335438
-0.0018648072 0.30344298 -0.19060336 -0.104075775 -0.0150377555 0.1296045 0.21932553 -0.51673853
-0.04164989 -0.09629331 0.109800935 -0.09978695 0.348208 -0.22160175 -0.054703042 -0.2527936
0.07543884 0.02565397 0.2835544 0.06613699 -0.17748512 -0.12201185 -0.0981603 -0.089147
-0.0724914 -0.006550586 0.15106373 0.21290284 0.10436929 0.0007758299 0.14219673 0.0966138
0.37343943 0.16665944 0.13286681 0.19284247 0.008231461 -0.021000765 -0.08901575 0.059654526
0.21627927 0.07305497 0.05903179 -0.2667687 0.09772009 0.20037459 0.16636936 -0.42678988
-0.14785166 0.34098363 0.10248216 0.36439767 0.006755719 0.19139403 0.07730716 0.116328776
0.2715945 0.07767413 -0.10587085 -0.029031565 -0.017019073 -0.17658603 -0.21031812 0.17818703
0.20044655 0.07489075 0.4056142 -0.28117734 -0.027279876 0.068694755 -0.06776658 0.098246545
0.014699093 -0.08883341 0.103323735 0.087368846 -0.04363615 0.24314585 0.33140257 -0.017200926
0.20255052 -0.30538744 -0.19477384 0.12341516 0.072033964 -0.04606209 0.04587978 -0.27729657
00000000: a0ea 73bd 74bc 573c bdfa f33d 1fc5 143e
00000010: dca9 80be 8154 4fbe aa02 28bd 1ca0 94be
00000020: e668 05bc 4bca 8ebd bb37 7ebe 1813 a43e
00000030: 4f97 29be 4d8b df3e bb56 b43e aa26 323e
00000040: 5458 ad3e 58a4 3e3e 0ba0 11be a73a dcbd
00000050: 9aeb 51bd 0b8c 99be eaab b33e 7ead 9a3e
00000060: 6dad 82be 3c1f c83c 705b 103e 4c1d 90be
00000070: a22a 38be b9e7 ac3e 0853 023e b72a 95be
00000080: d59a 22be 3087 953c 25cf 2b3e c629 133e
00000090: 7208 b83d 564c c83e b3e9 b5be c038 c5bd
000000a0: b9b9 9a3d 21cb 6f3e d0e3 413e 939e c3bc
000000b0: a969 253e 32c1 a2be 9a1f ecbd 94e4 a5bb
000000c0: afe4 323d 2699 c3bd 0556 5d3d 6650 afbd
000000d0: 7847 09bd ab6b 7abe 7a02 adbc e8bf f5ba
000000e0: a203 babd a490 9f3c 3351 623e 8cdf 01bd
000000f0: 1737 23bd e656 cb3d 440c 2cbd 2459 f2bd
00000100: 4ba8 4dbe e2af c63d fe4b 81be bdf7 c13d
00000110: 284b 67bc 7241 0ebe dbc1 8cbd 888c 4b3d
00000120: 3bc7 1ebe 0444 ce3d 8fb2 893e f4e8 90be
00000130: f66d edbd bff4 ffb9 b54b 933e 66c9 203d
00000140: 7844 2a3d 5366 a33e 0442 1c3e 10b7 003e
00000150: c42d d3bb 41ad 4abe df2b 1b3e 0be3 6c3e
00000160: d66c 1d3e a689 f23b bafa 293e ff1a 0a3e
00000170: 8b72 cd3b f3e0 0a3d 5d8f f53d 69b1 c03d
00000180: fb1a 963d 7b7b f6bc 1d59 51be 4deb 3d3e
00000190: 7bd3 0f3d a0e9 a83d 20a1 f9bd 3826 963e
000001a0: dc46 b5be d21c 8bbd a70c 173e 27d9 333e
000001b0: cdfd e1be 2e81 7abd a2b2 7abd e598 7abe
000001c0: a6af 95bd 8162 2e3e f547 56bd 5069 843d
000001d0: 7acc c13e 8f0a a9bd abf6 30be c4d8 6a3e
000001e0: d7f5 973e a7e0 5dbe b346 76be ac0b ca3d
000001f0: 7be6 53be 92cb 093e aad4 5f3e a361 2ebc
00000200: 9d2a 20be c442 fb3d 48fe d5bd a153 013e
00000210: ad17 1fbe 6123 96bc 8afa e43a 6b74 9f3e
00000220: 9fe8 6c3c 263c ca3c 0775 133e 5cec a43e
00000230: 705f a23e c4fa 633d da6c bfbd d051 4e3d
00000240: 5d09 483e 0b90 73bd 0354 d9bd 06e7 25be
00000250: 22af 3cbe 51c0 2dbe 44b4 8c3e 4f6e 94bd
00000260: 81a0 1d3d d97b 103e eddf 2abe 1456 063d
00000270: fb7b 35be c967 4fbe 845a bcbe 41ad e73d
00000280: 9314 21be 5ba2 a83e 735a 24bc 5030 62be
00000290: e622 533d 6715 0bbe 946c 063e 3965 093d
000002a0: 8c6c f4ba e15c 9b3e 872d 43be ae25 d5bd
000002b0: eb60 76bc 0bb7 043e df96 603e fa48 04bf
000002c0: 1399 2abd 6d35 c5bd 50df e03d 1a5d ccbd
000002d0: 5248 b23e 92eb 62be 4c10 60bd 2a6e 81be
000002e0: ae7f 9a3d 4628 d23c 0b2e 913e d572 873d
000002f0: a9be 35be 59e1 f9bd 4408 c9bd b492 b6bd
00000300: 5f76 94bd 4ca6 d6bb 73b0 1a3e 3403 5a3e
00000310: 91bf d53d 1061 4b3a 059c 113e 75dd c53d
00000320: 7433 bf3e c6a8 2a3e 3d0e 083e 7f78 453e
00000330: 40dd 063c cc09 acbc e44d b6bd 4e58 743d
00000340: 5078 5d3e d89d 953d 51cb 713d e895 88be
00000350: 7821 c83d ff2e 4d3e bb5c 2a3e 3484 dabe
00000360: 6d66 17be 6895 ae3e 2be2 d13d 5592 ba3e
00000370: 145f dd3b ccfc 433e 3753 9e3d c83d ee3d
00000380: 6f0e 8b3e 9d13 9f3d d1d2 d8bd 9bd3 edbc
00000390: 956b 8bbc f8d2 34be a25d 57be a976 363e
000003a0: dc41 4d3e 5260 993d aaac cf3e 7af6 8fbe
000003b0: 0c7a dfbc d6af 8c3d 34c9 8abd 7c35 c93d
000003c0: 77d4 703c 4aee b5bd 659b d33d 70ee b23d
000003d0: d2bb 32bd 3afb 783e 99ad a93e f5e8 8cbc
000003e0: 6769 4f3e be5b 9cbe cb72 47be 16c1 fc3d
000003f0: 8b86 933d 9aab 3cbd 70ec 3b3d d1f9 8dbe

mlp_extractor.policy_net.2.bias f4 [64]
-0.0833279 0.002187982 -0.054091826 -0.013628484 -0.00088670803 -0.011633667 -0.06701556 -0.01061086
-0.016407924 0.011585753 0.027842881 0.006498066 0.013751068 -0.007163915 -0.006894045 0.023841536
0.015882608 -0.038798127 -0.028694546 -0.01389231 -0.038370695 0.034325123 0.059205104 -0.0062465924
-0.00445212 -0.049727865 -0.033915784 -0.040447004 -0.033182167 -0.012727295 -0.02571394 0.02555157
-0.031890675 0.012996511 0.002621665 -0.002908862 0.007504278 0.024128696 -0.062231205 -0.04759008
-0.06833735 0.03767543 0.029901657 -0.0030018706 -0.008973079 -0.04978806 0.00802392 0.008863041
-0.006706612 0.0023587279 -0.02658038 -0.05905456 -0.08365219 0.051603492 0.02389863 0.030090615
-0.014668817 -0.02101193 -0.016120197 0.02958423 -0.046852212 -0.007135469 0.05007482 0.0021384598
00000000: d1a7 aabd 3f64 0f3b 648f 5dbd 014a 5fbc
00000010: f871 68ba 239b 3ebc 743f 89bd 2cd9 2dbc
00000020: e969 86bc 2cd2 3d3c c116 e43c baed d43b
00000030: 294c 613c 46bf eabb 71e7 e1bb 534f c33c
00000040: 3e1c 823c c9ea 1ebd d310 ebbc 929c 63bc
00000050: 972a 1dbd 8098 0c3d 0d81 723d 37b0 ccbb
00000060: 17e3 91bb 72af 4bbd 47eb 0abd c2ab 25bd
00000070: 06ea 07bd 2586 50bc 0aa6 d2bc 8751 d13c
00000080: cc9f 02bd 51ef 543c 3dd0 2b3b 9ba2 3ebb
00000090: 72e6 f53b 8ba9 c53c 26e6 7ebd d1ed 42bd
000000a0: 74f4 8bbd 8d51 1a3d 52f4 f43c 08bb 44bb
000000b0: d203 13bc 91ee 4bbd c276 033c 4a36 113c
000000c0: 24c3 dbbb e394 1a3b 19bf d9bc 32e3 71bd
000000d0: d751 abbd 2f5e 533d 0fc7 c33c 9880 f63c
000000e0: 7a55 70bc 3621 acbc 810e 84bc a15a f23c
000000f0: 1be8 3fbd a7d0 e9bb 411b 4d3d 6725 0c3b

action_net.weight f4 [2, 64]
0.39407545 0.0169827 0.027672105 -0.09072546 0.06289011 0.04345509 0.17696531 -0.06567266
-0.015583277 -0.09709762 -0.046519082 0.12544122 -0.013392131 0.082160324 0.15366907 -0.20284075
-0.0029280183 0.26486725 0.11388527 0.13588177 -0.026816621 0.016823484 -0.10742713 0.16754164
-0.06367808 0.18215266 0.15375787 0.050007697 0.078364395 0.13640189 0.008983966 -0.24928665
-0.07404137 -0.03838981 -0.041327443 -0.004259005 -0.054640103 -0.17464238 0.06073641 0.030221248
0.04253596 -0.06181662 -0.2320245 -0.038474526 -0.07526069 0.13917337 -0.023515856 -0.13306355
0.048232596 0.16036776 0.06883325 0.16370097 0.16781674 -0.045124818 0.054849446 0.00010343356
0.07163469 0.11281809 0.030974863 -0.23857425 0.19110397 0.13189968 -0.1432365 -0.08749584
0.04916862 0.1304714 -0.07336348 -0.09395247 0.16278344 -0.1630588 0.15265174 -0.10634638
-0.12337365 0.0061633866 0.1613485 -0.028860651 0.11403119 0.045418207 0.10936024 -0.09878463
0.1080931 0.05575335 -0.06816841 0.09254497 -0.11240331 0.097025186 0.13092783 -0.06784869
-0.13268787 -0.039881296 0.13028955 -0.1969974 -0.16153795 0.017531151 -0.11899521 0.11242595
-0.014630517 -0.09397582 -0.14312266 -0.11904806 0.09159713 -0.06509248 -0.12062055 -0.16681112
-0.12930076 0.18347552 -0.01581111 -0.081161216 -0.11736598 -0.03913037 0.16522625 0.05059457
-0.015416332 0.016124506 0.08344205 0.10497156 -0.009191923 0.2086731 0.10280137 0.12849697
-0.045021404 -0.0876531 -0.16553752 0.046619013 0.091170035 0.10516765 0.14400567 0.07067752
00000000: 42c4 c93e 4e1f 8b3c 9cb0 e23c 45ce b9bd
00000010: 88cc 803d f7fd 313d 6536 353e 637f 86bd
00000020: 0051 7fbc 1edb c6bd cb8a 3ebd aa73 003e
00000030: ab6a 5bbc ac43 a83d 6d5b 1d3e 7cb5 4fbe
00000040: ffe3 3fbb ae9c 873e ae3c e93d 9724 0b3e
00000050: 88ae dbbc 67d1 893c c102 dcbd 0990 2b3e
00000060: a769 82bd 3a86 3a3e b472 1d3e dfd4 4c3d
00000070: 837d a03d f0ac 0b3e 7c31 133c 0045 7fbe
00000080: 00a3 97bd a23e 1dbd f746 29bd 208f 8bbb
00000090: 4dce 5fbd 74d5 32be bec6 783d 8d92 f73c
000000a0: 303a 2e3d 6d33 7dbd d597 6dbe 7797 1dbd
000000b0: 4722 9abd 7783 0e3e 53a4 c0bc d041 08be
000000c0: 8b8f 453d 7237 243e 72f8 8c3d 3aa1 273e
000000d0: 27d8 2b3e cdd4 38bd d0a9 603d 78ea d838
000000e0: 35b5 923d 2c0d e73d ffbe fd3c cf4c 74be
000000f0: c2b0 433e b610 073e 97ac 12be 0531 b3bd
00000100: 0965 493d 4b9a 053e 983f 96bd 276a c0bd
00000110: b4b0 263e e3f8 26be bd50 1c3e 22cc d9bd
00000120: 53ab fcbd 3cf6 c93b 8b38 253e 2c6d ecbc
00000130: 2f89 e93d 7108 3a3d 43f8 df3d 994f cabd
00000140: ea5f dd3d a05d 643d e19b 8bbd 3888 bd3d
00000150: b533 e6bd 24b5 c63d f211 063e 41f4 8abd
00000160: 54df 07be 925a 23bd a06a 053e b0b9 49be
00000170: 346a 25be 7d9d 8f3c c3b3 f3bd 943f e63d
00000180: d6b4 6fbc 6576 c0bd bf8e 12be 78cf f3bd
00000190: 4797 bb3d 354f 85bd e807 f7bd 89d0 2abe
000001a0: 6b67 04be 02e1 3b3e 4d86 81bc da37 a6bd
000001b0: 935d f0bd 2b47 20bd 1231 293e 403c 4f3d
000001c0: c894 7cbc 8a17 843c aae3 aa3d 54fb d63d
000001d0: b899 16bc 67ae 553e 8689 d23d b694 033e
000001e0: 5d68 38bd 7883 b3bd ab82 29be 94f3 3e3d
000001f0: 5bb7 ba3d 2362 d73d 3976 133e 60bf 903d

action_net.bias f4 [2]
-0.25353572 0.086099066
00000000: 6fcf 81be b554 b03d
