onnx/domain_randomized.onnx (onnx, 24270 bytes, 6 tensors)

mlp_extractor.policy_net.0.weight f4 [64, 20]
000000 ad ca b9 3b c4 72 67 be 43 17 4f bd 8f f4 81 3e
       0.005669913 -0.22602373 -0.050559293 0.25381896
000010 98 41 99 be 68 92 a3 bd 07 b8 02 3e c8 ae a6 be
       -0.29932857 -0.07986909 0.12765513 -0.32555223
000020 89 7d 4e bd 25 2d 13 3e 78 30 25 3e 79 cf 2e 3e
       -0.05041269 0.1437269 0.1613177 0.17071332
000030 2d 80 7c be 09 9b b8 3e 72 66 8d bb f1 e1 2c 3e
       -0.2465827 0.36055782 -0.004315191 0.16883065
000040 1a fa 0e be 41 40 f8 3d 5d b8 d0 bd f2 36 0e 3e
       -0.13962594 0.121216305 -0.101914145 0.13888147
000050 30 6f 76 3d f7 5a d1 bc 6a 95 16 3e 3c 16 5b 3e
       0.06016463 -0.02555607 0.14705434 0.213952
000060 6e 30 c9 3e ee 4a 34 3e a0 2d 9b bd 81 17 1a 3e
       0.3929476 0.17606708 -0.07577062 0.15048029
000070 1d 57 aa 3e 20 0c 93 be 61 5e 71 bb ae 24 b5 bc
       0.33269587 -0.28720188 -0.0036829936 -0.022112217
000080 6e f1 c3 bd 6c a8 50 be 43 cc 01 be 53 70 05 3d
       -0.095675334 -0.20376748 -0.12675576 0.032577824
000090 47 27 34 be b8 18 db bc a1 90 40 be a1 dc d3 be
       -0.17593108 -0.026745185 -0.18805172 -0.41379264
0000a0 dd 75 2d 3e 03 28 aa bc 2d 9b c7 3d 85 df e0 3d
       0.16939493 -0.020771032 0.09746394 0.10980133
0000b0 f7 5f 51 3c 21 7d 10 bd 4d 79 3a be cc f1 2d 3e
       0.012779227 -0.035275582 -0.18210335 0.1698677
0000c0 9b 5f 57 bd 9b 1f 41 3e 71 79 82 be 98 9e 45 3e
       -0.05258141 0.18859713 -0.25483277 0.1929878
0000d0 03 ec 0d 3e 53 e3 13 3e 5d 9a 2d bd c0 7b c7 bd
       0.13859563 0.14442186 -0.04238354 -0.097404
0000e0 96 72 85 3e 68 58 18 be 5e 03 ef be 18 11 71 be
       0.26063985 -0.14877474 -0.46682256 -0.23541677
0000f0 8f f6 ec bd 52 0c 04 3e 45 dd 9d be 6b 95 61 3e
       -0.11570465 0.12895325 -0.30832878 0.22029655
000100 30 cc cb bd 63 99 05 3d 88 a8 14 3e d7 d0 a1 3e
       -0.09951055 0.032616984 0.14517415 0.31604645
000110 e7 c9 de bd f2 23 ad be ae af 9f be 81 30 c6 3d
       -0.108783536 -0.33816487 -0.3118872 0.0967722
000120 43 03 5c 3e aa 69 21 3e 3e 5d 29 be 38 1d 33 be
       0.21485619 0.15762964 -0.16539475 -0.17491615
000130 a9 ef ac 3d 11 2d 09 3d 8a 2d b4 3d 99 36 78 bd
       0.08444149 0.033490244 0.087977484 -0.060598943
000140 d0 35 39 3e 2c 6e 2f 3e 39 b1 e0 bd 2f ab 8f bd
       0.18086934 0.17131871 -0.109713025 -0.070150726
000150 af 86 3c bc ef 16 30 be 84 ff ac be 45 4e 6a be
       -0.01150672 -0.17196248 -0.33788693 -0.2288142
000160 96 09 65 be 0c 66 58 bc 27 51 95 be 11 92 62 3e
       -0.22366938 -0.013207924 -0.29163477 0.22126032
000170 3d 03 3d 3e 5c a2 88 bd 43 b9 b4 3e 05 70 29 bc
       0.18458267 -0.066715926 0.35297593 -0.010341649
000180 99 26 14 bd fb 47 ee bd c0 dd f0 bc 46 ab 3d 3e
       -0.036169622 -0.11634823 -0.029402614 0.18522367
000190 3f ac e3 3d f7 af ae 3e 9d 1c 0c be bd cc 1d be
       0.11116838 0.34118626 -0.1368279 -0.15410133
0001a0 53 ab 0e 3e 6a 0f de be 16 dd 83 3e b0 ec 88 3d
       0.13932543 -0.43371135 0.25754613 0.066857696
0001b0 1c fb 4e 3e 99 fd 07 bd 4c e8 14 be be af 66 be
       0.20212978 -0.033200834 -0.14541739 -0.22527978
0001c0 00 10 49 3d 58 94 6f 3d c0 9f c4 3d 29 18 0a be
       0.049087524 0.05849108 0.096007824 -0.13485779
0001d0 5f 9b 65 3d 36 54 02 3d 0d 14 90 bd 5e f2 c9 be
       0.056056377 0.03181859 -0.070350744 -0.39442724
0001e0 7e 90 02 3e f5 62 62 be e2 e5 07 3e d3 22 10 3e
       0.12750432 -0.22108062 0.13271287 0.14075784
0001f0 a3 43 14 bd af d5 36 be f3 bc 1a 3e 7d a4 3f be
       -0.036197316 -0.17854951 0.15111141 -0.18715091
000200 2e 73 c8 bc 27 17 6c bd 80 82 64 be 84 aa ae 3e
       -0.024468984 -0.057639267 -0.22315407 0.34114468
000210 ea 77 b4 3d f6 5d 43 be 52 78 bd 3c 07 ee f2 3d
       0.08811934 -0.19078812 0.023128662 0.11861806
000220 bc 4c 72 3d ca 18 99 be f0 b6 9e 3e 36 ff b2 bd
       0.05915521 -0.29901725 0.30998945 -0.08740084
000230 91 0b 21 bc 37 b0 29 3e 77 14 84 bd 97 a6 01 3e
       -0.009829418 0.16571127 -0.06449216 0.12661205
000240 8e 9a 15 3e 80 38 76 be 6d 34 aa bd 4c b3 7f be
       0.14609739 -0.2404499 -0.08310781 -0.2497074
000250 60 72 76 3d 08 67 a1 be 01 0b 85 bd 72 b8 64 bd
       0.06016767 -0.3152392 -0.064962395 -0.055839963
000260 8d 12 4f 3e ab 21 07 3d 7c 9b ae be 61 d1 89 bd
       0.2022192 0.032991093 -0.34103 -0.06729389
000270 a7 2d 1e bd b2 7a b8 3e 22 2f 27 be fd 98 68 be
       -0.038617756 0.3603111 -0.16326573 -0.2271461
000280 0a 28 51 3e 00 a5 a2 3b 2c e8 1f 39 52 dc 70 3d
       0.2042543 0.004963517 0.00015249912 0.058803864
000290 d4 69 ec 3d 23 e0 c9 bd 91 70 91 3e ee 2b 95 be
       0.115436226 -0.09857204 0.28406194 -0.29135078
0002a0 4c 18 80 be 35 15 4d 3d 4f e2 53 3e af 50 d2 3c
       -0.25018537 0.050069053 0.20691799 0.025673239
0002b0 ff be d2 ba e3 24 64 3d b2 52 c0 bd a6 28 f7 3d
       -0.001607865 0.05569924 -0.09390773 0.120683
0002c0 e5 77 c1 3d c3 1b d1 be c7 79 7a be 6d 3d b6 bd
       0.09446696 -0.40841493 -0.24460517 -0.08898435
0002d0 fa d0 95 bd 63 9d 2e 3d b4 6b c5 be 99 b9 2a be
       -0.0731525 0.042630564 -0.38558733 -0.16672362
0002e0 eb 33 00 be 08 39 78 be 9a 62 13 be 4c c6 94 3a
       -0.12519805 -0.24240506 -0.14393082 0.0011350601
0002f0 28 5f a8 bd a0 bb c9 be 92 7e 52 3d 02 ee a9 3d
       -0.082212746 -0.3940096 0.051390238 0.082973495
000300 59 f2 3f 3e dd 75 3e 3e d9 ec d5 bd 52 16 e4 3d
       0.18744792 0.18599649 -0.10445566 0.1113707
000310 96 38 d7 bc 5f 67 88 3d 60 45 15 be ea 80 3b 3d
       -0.0262721 0.066603415 -0.14577246 0.04577724
000320 1b 82 b4 3d f5 50 93 3e d3 0a 9c be 3c 5d 44 be
       0.08813878 0.28772703 -0.30477008 -0.19176191
000330 7b cb 35 be ee 9d 2c 3d 32 68 17 3e 34 63 ae be
       -0.17753403 0.0421428 0.14785841 -0.3406006
000340 3b 55 06 3e 16 06 26 be b2 69 92 bd da 30 a4 bc
       0.1311845 -0.16213259 -0.07149066 -0.020042825
000350 0c fb 45 be 5f 03 8f 3d 6a aa fb bd 91 1c d1 bd
       -0.19334048 0.06983065 -0.12288363 -0.10210527
000360 bb 44 ac bd df f2 f9 bc f0 3e d5 3d c6 7d 90 be
       -0.08411547 -0.030511318 0.10412395 -0.28220958
000370 f3 52 ac bc ec 05 07 be 65 1d 3d 3d 69 e0 68 3d
       -0.021035647 -0.13185853 0.04617061 0.05685464
000380 f1 51 35 be 09 40 6c be fa dd 7e be 6f 6e a9 bd
       -0.1770704 -0.23071302 -0.24889365 -0.08273017
000390 23 9d a9 bc 75 af a2 bd d1 5b 1b be c1 6e 39 3e
       -0.020704811 -0.07943622 -0.15171744 0.18108656
0003a0 06 09 27 be 67 5a 26 be a0 ca c1 bc 34 0a 8f 3d
       -0.16312036 -0.16245423 -0.02365619 0.06984368
0003b0 02 58 1e 3e c8 42 2c 3d f4 44 67 be 5f 32 33 be
       0.1546326 0.042055875 -0.22584897 -0.17499684
0003c0 4f b3 a0 bd 27 9e 8e bb e6 57 83 bd 90 00 d6 3c
       -0.078467004 -0.0043523493 -0.0641325 0.026123315
0003d0 92 1a 89 3e 37 d8 69 bd 07 be 1e 3d ad 71 d8 bb
       0.26778084 -0.057090964 0.038755443 -0.006605348
0003e0 33 70 00 3d 12 3e 5b 3e d3 d7 48 3e bb 64 11 3d
       0.031357 0.21410397 0.1961358 0.035496455
0003f0 6c 03 e6 3d e1 ab 8d 3d b1 f6 4b be 9c b1 b4 3e
       0.112311214 0.06917549 -0.19918324 0.35291755

mlp_extractor.policy_net.0.bias f4 [64]
000000 7c 2b a9 3c 3d cc 81 3c 9a c5 db 3b a0 14 5d 3c
       0.020650618 0.015844459 0.0067069056 0.013493687
000010 5c f9 9c 3c 2a d2 0b bd 15 8f 99 3c c6 7b 5c bc
       0.019161873 -0.034135975 0.018744985 -0.013457244
000020 98 be 00 3c 30 c8 bb 3c 32 7e 17 bd b5 53 02 3c
       0.007857941 0.022922605 -0.036985584 0.007954528
000030 39 c8 0f 3d 54 e9 1b 3c 28 19 4f 3b 3c 12 d6 3c
       0.035103057 0.009516079 0.0031600688 0.026131742
000040 27 79 93 bc f5 12 f8 3c ef 19 86 bd 0e 2e 4e 3d
       -0.018002106 0.030282477 -0.06547915 0.05033689
000050 c1 3a 76 bc d6 df 8c ba 97 79 a5 3c 5f 19 0d 3d
       -0.015028656 -0.0010747861 0.02019958 0.034448024
000060 d8 1a 2e bc 3d 69 65 bd 82 b3 79 bd af 94 05 3d
       -0.010626517 -0.056008566 -0.060962208 0.0326125
000070 a2 8f 7b bc 17 09 05 bc 7a 2a a6 3c 02 93 93 bc
       -0.015354069 -0.008119843 0.020283926 -0.018014435
000080 68 0b b2 3b 66 d1 0a 3d ef ae f6 bc 83 90 be bb
       0.0054334886 0.033891104 -0.030112712 -0.005815567
000090 cc b1 38 3c 9d 64 88 3d 62 0f 04 bd ff a4 4a 3b
       0.011272859 0.066598155 -0.032241233 0.00309211
0000a0 20 de 9e bb cf 17 38 bb 11 42 19 3d f2 ba 2d bc
       -0.0048482567 -0.0028090363 0.03741652 -0.010603653
0000b0 86 67 70 bc 08 fa 6b 3c 56 1e 27 bd d1 6e 67 bd
       -0.014673119 0.014402874 -0.040800415 -0.056502167
0000c0 68 68 9b 3c 15 e2 0b 3c 60 e1 b2 3c 5c 01 b2 3b
       0.018970683 0.008537789 0.021835983 0.005432291
0000d0 15 db eb 3c ae f2 af bc 68 bd 8e bc 4e 11 1d 3d
       0.02879099 -0.021478023 -0.0174243 0.03834658
0000e0 f9 ff 28 bd 76 b5 26 3c 0d 4e 7c bd b3 53 0c bd
       -0.04125974 0.0101751 -0.061597873 -0.03425951
0000f0 f4 91 f8 bc 22 d4 0f 3d 0a 7d 0e bc 15 af f6 bc
       -0.030343033 0.035114415 -0.008696804 -0.030112782

mlp_extractor.policy_net.2.weight f4 [64, 64]
000000 aa 43 a4 3d 53 50 96 be 84 e2 cd 3d 6e 3b 07 3e
       0.080207184 -0.29358158 0.1005297 0.13206264
000010 81 0f 72 3e c3 0b a4 3d 47 31 1c 3e 33 a2 d0 be
       0.23638727 0.08010056 0.15253173 -0.40748748
000020 48 15 05 3e 12 c6 b9 3d 4e a3 a3 bd 14 0a 0e 3d
       0.129964 0.09070982 -0.07990132 0.03467758
000030 ba f8 84 3e 6a 2c 32 3c c3 19 84 be 39 e0 35 bd
       0.25971013 0.010874847 -0.25800905 -0.04440329
000040 6a c0 96 be db 71 52 be 88 c8 91 bd 7d cc 52 be
       -0.29443675 -0.20551245 -0.071183264 -0.20585819
000050 03 d0 4a be 9f 6a b4 be 67 67 e4 3d 7a 20 89 3e
       -0.19805913 -0.35237595 0.11152535 0.2678259
000060 c5 df 17 3d 04 a2 41 be 71 9e 4b 3d d1 5c c9 3c
       0.037078638 -0.1890946 0.04971165 0.024580391
000070 7d 22 31 3e 7d ae 61 be 90 93 3d be b5 24 7c 3e
       0.17298312 -0.22039218 -0.18513322 0.24623378
000080 81 21 e1 3d e4 08 28 3e b2 91 22 3e 2c dd ef 3d
       0.109927185 0.16409642 0.15875891 0.11712107
000090 9f 9f 8f be c9 89 c7 3d 42 78 b0 3d 5c 72 b8 3d
       -0.2805147 0.09743077 0.08616687 0.09006187
0000a0 a5 68 9d 3d 77 60 f0 bc 34 c5 3c bc f1 b7 b6 be
       0.07685975 -0.029342873 -0.011521626 -0.3568721
0000b0 8d cd c0 3d 0a 34 84 3d e1 00 43 3d 7f 15 1e be
       0.09414206 0.06455238 0.04760826 -0.15437888
0000c0 6d 9a cf bd dd 23 90 3e 7c 5d 7e 3e a0 58 04 bd
       -0.10136876 0.28152362 0.24840349 -0.032311082
0000d0 ae f7 58 bd d4 87 96 be 1e 67 2b 3d 20 78 62 be
       -0.05297058 -0.29400504 0.041846387 -0.22116137
0000e0 0f 94 3e 3c d7 61 a5 3e e5 b5 98 3c 83 eb 2e 3e
       0.01163198 0.32301208 0.018641422 0.17082028
0000f0 f8 c0 c0 3d c3 dc 1f 3e be ff 29 be cc 26 69 3b
       0.09411806 0.15611558 -0.16601464 0.0035576103
000100 fd 85 00 3c fc 7d fa bb 13 8f 4b 3e 6a e3 19 be
       0.007844445 -0.007644413 0.19878797 -0.15028158
000110 3f 22 03 3f 58 a5 4a 3e 2b 17 09 3d c9 35 94 bd
       0.5122413 0.19789636 0.03346936 -0.07236821
000120 2d 0b 98 3e 55 6b 0c bd ec a6 7d 3d ec 7a a3 be
       0.29696026 -0.034282047 0.061926767 -0.3192972
000130 19 6b e0 bd 92 d2 d7 3c 18 d0 e3 bd 40 1d 85 3e
       -0.10957927 0.026345525 -0.11123675 0.25998878
000140 bd ed 80 3d 07 cf b4 3e 2c d4 d1 3d 07 64 92 be
       0.06295345 0.353142 0.10245547 -0.2859194
000150 8b eb 45 3e f4 28 21 bd 1b d5 07 3d c3 bf 80 3e
       0.19328134 -0.039345697 0.033162218 0.25146303
000160 13 e1 42 bd d9 11 44 bc 10 94 d6 bc 84 52 90 bd
       -0.04757793 -0.011967146 -0.026193649 -0.070469886
000170 e8 2e ce bd 2e 2b b3 3e 77 e0 28 be 67 18 a8 bc
       -0.100675404 0.3499388 -0.16491877 -0.020519448
000180 29 60 40 be 1d 42 0b be 70 2f d0 3d cf ad 0c bd
       -0.18786682 -0.13599439 0.10165298 -0.034345444
000190 30 89 55 3e e1 99 3c bd 03 45 25 be 99 fb fb 3d
       0.20853114 -0.046045188 -0.16139607 0.12303848
0001a0 55 6d 86 be 8d 40 eb bc 70 ab a4 3e 2a 35 cd bd
       -0.2625529 -0.028717304 0.32162046 -0.10019906
0001b0 e5 31 9a 3e 27 97 92 be fb db 6b bd 80 56 e7 bc
       0.30116192 -0.28630945 -0.057582837 -0.028239489
0001c0 7c af 5c be 3a 29 a1 3d 1e 34 77 bd b5 6d 1f bd
       -0.21551317 0.078691915 -0.060352437 -0.038922984
0001d0 18 0f cd bd fd f9 8d 3b b9 12 f7 3d ca ac 34 3e
       -0.100126445 0.0043327794 0.12064118 0.17644039
0001e0 7e e6 90 bc ee b4 24 3d 9f 8e 65 3e ab 15 be bd
       -0.017688032 0.04021161 0.22417687 -0.092814766
0001f0 f0 71 7d 3b 1c 4c 9d be 55 4e c9 3d 8f 33 8c be
       0.0038672648 -0.3072213 0.09829394 -0.27383086
000200 aa c9 8d 3d a5 80 02 3c 14 5d 32 3e 22 96 af be
       0.0692323 0.007965242 0.17418319 -0.3429423
000210 05 2d 9a be 2f 27 9b bc a5 9f 4b 3e 1a 6b 97 be
       -0.30112472 -0.018939583 0.19885118 -0.295739
000220 9c 1b 82 be aa 18 7a bd f3 97 9a 3d 78 db 82 3d
       -0.2541169 -0.061058678 0.07548513 0.063895166
000230 23 02 a7 be d8 ac c5 3d d3 26 84 be da 0c 86 bd
       -0.32618818 0.09652108 -0.2581087 -0.0654542
000240 9e 46 97 be 26 f3 5c 3d 9f ec 28 be 3c 8f 50 be
       -0.29546064 0.053942822 -0.16496514 -0.2036714
000250 c0 a4 44 3d f0 01 a1 3c fc fe dc bc 8d de 20 3d
       0.04800868 0.019654244 -0.026977055 0.03927474
000260 47 79 14 bd 49 04 60 be e7 dc 3a 3e bc c9 49 be
       -0.03624847 -0.21876635 0.1824833 -0.19705862
000270 5b e7 8a be af 4b 26 be f7 71 9a ba 19 a5 88 bc
       -0.27129635 -0.16239808 -0.0011783232 -0.016680287
000280 a2 0e 31 bc 16 a9 9e 3d aa 12 b4 3d 4f e9 8d bd
       -0.010806711 0.07747094 0.087926224 -0.06929266
000290 93 ad b4 3d 4f 73 f6 bd c1 ee fb bd 79 dd 04 3e
       0.08822169 -0.12033712 -0.12301398 0.1297511
0002a0 06 ad 19 3c 60 ed d0 bd 56 fa 5e 3d 8e 78 96 bd
       0.009379631 -0.10201526 0.054437958 -0.07347213
0002b0 b3 bd f5 bd c4 d0 83 be 2a a3 08 bf 5a f4 10 be
       -0.11999073 -0.25745213 -0.5337397 -0.14155713
0002c0 fc 44 bf 3d 03 e3 5e 3d 7f 25 7b be 60 56 ad bc
       0.093393296 0.054415714 -0.24526022 -0.02115935
0002d0 45 9b 19 bd be 8a 76 be 49 35 54 bd dc 2f bd 3d
       -0.037501592 -0.24076363 -0.05180863 0.09237644
0002e0 9e 7d 8e 3e 9e 85 46 be 0a 07 c5 be 46 be 53 bd
       0.27830213 -0.19386908 -0.38481933 -0.05169513
0002f0 34 6c 83 be a9 81 d7 3c 49 c8 51 3e f7 42 ee 3d
       -0.2566849 0.026306944 0.20486559 0.11633866
000300 04 2b 30 be 7f 7f 28 3e f0 cc 7f 3d ee 6c 89 be
       -0.17203909 0.16454886 0.062451303 -0.2684092
000310 de a0 83 bc 8a c2 d1 3e c5 71 ef be 08 49 be 3d
       -0.016067918 0.40968734 -0.46766487 0.09291273
000320 24 0e 0a 3e be ce 93 3c d2 5f 8d 3b f2 25 c6 3e
       0.13481957 0.018042918 0.004314401 0.38700825
000330 ed 89 42 bc 75 c1 dd 3d 83 11 9f bc 51 8a ae 3d
       -0.011873704 0.108279146 -0.01941753 0.085224755
000340 4c 9f 41 3e 7c 2a 83 be 35 f7 a2 bc 9f 32 9b ba
       0.18908423 -0.2561835 -0.019893268 -0.0011840648
000350 1e 3f fb bb c6 ff 72 bd 05 bc 8f bd cc 9a 02 bd
       -0.0076674363 -0.059325956 -0.07018284 -0.031885907
000360 7d 1b b1 bd 83 a4 b4 be c4 90 a5 bd 14 79 50 bd
       -0.08647821 -0.35281762 -0.080842525 -0.05089672
000370 40 63 00 3e 97 ca 49 3e a4 8a e6 3c ee 1f 3f 3e
       0.12537861 0.19706188 0.02814228 0.18664524
000380 e4 8d e8 3d 8f 44 d1 bd 11 01 ad 3d c7 ab c3 bd
       0.113551885 -0.10218155 0.08447469 -0.09554248
000390 dc 70 1c bd e9 b0 01 bc fb e2 27 3e 5b 23 03 3d
       -0.03819357 -0.007915714 0.1639518 0.03201614
0003a0 1d 9d d5 3d ce 02 f8 bb ad 17 4d 3d 4a b9 b1 be
       0.104303576 -0.0075686937 0.050071407 -0.34711677
0003b0 11 a8 7e be 4e e2 e9 3d d9 7e c3 bd f4 22 63 3e
       -0.248688 0.11420117 -0.09545679 0.22181302
0003c0 78 1b 99 bd d5 88 e5 bc b5 75 65 be ad 29 d1 3e
       -0.074759424 -0.028019348 -0.22408183 0.4085211
0003d0 75 57 3c be 92 a3 73 3d fa ed 7c 3e 1d aa 60 bd
       -0.18392737 0.059482165 0.24700156 -0.054849733
0003e0 47 f6 28 3e d3 91 63 3c f3 e0 82 bd 8d 7c 05 bd
       0.16500197 0.013889748 -0.06390562 -0.032589484
0003f0 0f e2 6d bc f2 0d 3a 3e d6 91 41 3e 94 7d dc be
       -0.014519229 0.18169382 0.18903288 -0.43064559

mlp_extractor.policy_net.2.bias f4 [64]
000000 b5 16 01 3d cb b2 1b bb d5 3b a0 3b a6 fa f6 bc
       0.031515796 -0.0023757692 0.004889945 -0.030148815
000010 a9 94 9a 3c d0 31 b3 3c 61 59 9a 3b a5 98 3f 3a
       0.018869715 0.021874338 0.004710362 0.00073088176
000020 3c 21 c1 3c 28 8a 92 bc ca 12 70 3c 29 a7 8c 3c
       0.023575418 -0.017888144 0.014652917 0.017169552
000030 26 4c 8e 3c 59 1c 19 3d 37 2a 83 bc 9d 72 c8 bc
       0.017370295 0.03738055 -0.01601134 -0.024468714
000040 84 3b a7 3c 7d f3 c7 3c 21 54 d0 bb 38 9a 96 3c
       0.020414121 0.024408096 -0.006357685 0.018384084
000050 62 ca 88 3c 14 55 bf 3c 9a 64 11 3c 8a 44 1b bb
       0.016698066 0.023355998 0.008874083 -0.0023691976
000060 a2 25 c0 3c 4f 70 c6 3b 40 2a 8d 3b da cb 6c bc
       0.023455445 0.0060558687 0.004308015 -0.014452899
000070 36 87 bc bc b3 77 9c bc 5e db fa 3b 08 42 98 b9
       -0.023013692 -0.019100046 0.007655545 -0.00029040896
000080 73 ca 85 bc ac 83 02 3d ac 83 e7 3c 34 b1 1c bd
       -0.016331887 0.031863853 0.028261028 -0.03825493
000090 4e c0 b0 bc c9 73 b1 3c 7a dd 20 bc 35 27 a3 ba
       -0.021576073 0.021661656 -0.009818429 -0.0012447598
0000a0 c4 b4 3f 3c 50 8d 90 3c 07 69 83 bc ca 39 da bc
       0.011700813 0.017645508 -0.016041292 -0.026638884
0000b0 ac fb ba 3b 94 57 db ba 54 c0 81 bc 6a b5 57 3c
       0.005706271 -0.0016734474 -0.01583878 0.013165811
0000c0 7d 4d 2b bb 88 3f aa bb 3f 8d 1c bd ab 47 bf 3c
       -0.0026138716 -0.005195562 -0.03822064 0.023349604
0000d0 ff de a7 ba a2 91 ed bc 88 b5 68 3c 36 98 8e bc
       -0.0012807547 -0.029000107 0.014203437 -0.017406564
0000e0 d6 fe 5e bc 6c 9a b2 3c 1c c6 a9 bc f6 b7 99 bb
       -0.013610562 0.02180215 -0.020724349 -0.0046911193
0000f0 2e 24 38 bc f9 d9 cd 3c e8 bc f6 3b 7d 69 d7 bc
       -0.011239095 0.025128352 0.0075298436 -0.026295418

action_net.weight f4 [2, 64]
000000 4f cc 5b 3d 82 d7 c8 bd 09 a9 de bd dc e8 4a bd
       0.05366164 -0.0980673 -0.10872085 -0.04953848
000010 ed 40 be 3d 12 d8 84 3d 57 5b f4 ba ee e3 a2 3d
       0.09289727 0.06486525 -0.0018642944 0.079536304
000020 c9 ca e2 3d 01 01 7d bd dc dd 8d 3d ee ce ab 3d
       0.110738344 -0.061768536 0.06927082 0.08389078
000030 33 51 0c bd 18 df c5 3d 18 04 bd 3d 26 1a c5 bd
       -0.034257125 0.096616924 0.092292964 -0.09624128
000040 ed 32 85 3d 74 59 bd 3d 1e e5 bf bc 91 61 e1 3d
       0.06503854 0.092455775 -0.023424681 0.110049374
000050 91 f6 40 3c 78 c8 9a 3d bb cf 23 3d a1 0e 60 bc
       0.011777536 0.07557768 0.03999303 -0.013675363
000060 4d ee dd 3d 17 59 de bd 36 cb 5a 3d 5e c7 8d bd
       0.10836468 -0.10856836 0.053416453 -0.06922792
000070 7a 57 0f 3d 5b d5 8b bd 2e 87 8e bb be 45 cf bd
       0.034995534 -0.06827804 -0.004349611 -0.10120724
000080 a2 ad ec bd 83 d2 99 3d de 1c 44 bc 97 a8 a5 bd
       -0.11556555 0.07510855 -0.011969773 -0.080887966
000090 6a e4 02 3d 6f 68 a6 3d 0c 3f 74 bd 76 57 70 bc
       0.031956114 0.08125388 -0.05963044 -0.01466929
0000a0 8b 97 9c 3c 14 fb 13 3c 29 9f 88 bd 13 0c 80 bd
       0.01911523 0.00903203 -0.066709824 -0.06252303
0000b0 61 22 fe bd eb 03 51 bd 83 53 84 bc 48 ca eb ba
       -0.12408901 -0.051029127 -0.016153103 -0.0017989362
0000c0 8b f8 8a bd bf 38 02 bd 36 4a 8d bd 3f 7a a5 3d
       -0.06785687 -0.0317924 -0.0689892 0.08079957
0000d0 b0 f2 6d bd d0 de d4 3d e7 bf fd 3d 50 5b 4e bd
       -0.058092773 0.103940606 0.12390118 -0.05038005
0000e0 1a 8a 2b bc 4b c8 39 3d 99 40 d0 3c e8 3c 9e bd
       -0.010469938 0.04535703 0.025421428 -0.07726461
0000f0 53 5f c8 bd 22 fc bd bd 6d 07 fd bd aa 0d be 3d
       -0.09783807 -0.09276606 -0.12354932 0.0927995
000100 c5 22 00 bd 91 57 bb bc 3d d2 8d bd 6a 63 16 bc
       -0.03128316 -0.022868903 -0.069248654 -0.009178976
000110 0e 6d 8c bb 0f e9 b4 3c 47 bc 13 be af f8 a0 bd
       -0.0042854613 0.022083787 -0.14427291 -0.07859933
000120 8c 1c 55 bc 43 34 c9 3d cf 1a 4d bd 20 d0 2a bd
       -0.013007294 0.09824421 -0.050074395 -0.04170239
000130 7e 2e ad be ef a4 1d ba e8 c3 0e 3e e1 3f ed 3c
       -0.33824533 -0.0006013652 0.1394192 0.028961124
000140 c6 6f b1 bc 87 98 9b bc 70 54 05 be cc 3c 32 3c
       -0.021659743 -0.01899363 -0.13020492 0.010878753
000150 64 e0 50 be 6b 9c 2c 3d 12 bb a5 3d 1c a6 d0 3d
       -0.20398098 0.04214136 0.080923215 0.10187933
000160 13 19 fe bc c5 37 b8 bd a6 59 0a bd 3b 96 e6 3d
       -0.031017816 -0.08995012 -0.0337769 0.11259123
000170 a7 4a 95 3e 56 f3 1b 3d 8a ae 5b be e7 d4 ba bd
       0.29158518 0.03807386 -0.214533 -0.09122639
000180 c3 ac cf bb eb de ff bb 05 aa 4b be 65 c5 dd 3c
       -0.0063377335 -0.0078085563 -0.19889076 0.027071664
000190 9f 58 91 3e 12 9a 53 bc 74 1a 8a 3d c8 be ac 3d
       0.28387925 -0.012915151 0.06743327 0.08434826
0001a0 ed 49 70 3d d2 8d a9 be 70 ab 41 38 a8 78 a7 3c
       0.05866425 -0.33116013 4.617445e-05 0.020443276
0001b0 e7 f8 19 be 83 8f 9d bd 90 86 16 3e 9a 89 8c bd
       -0.15036355 -0.07693388 0.14699769 -0.06862183
0001c0 79 e3 eb bd c5 b7 d0 3d 5a 21 e3 3c fe e5 47 bd
       -0.11517996 0.10191301 0.027725864 -0.048803322
0001d0 e6 b9 24 3d aa 92 80 3e be 6e d5 3c 95 0f 76 3d
       0.04021635 0.25111896 0.026053783 0.060073454
0001e0 06 ae 62 3e f7 03 45 3d 4b 1e 8c 3e 25 fe ab bc
       0.22136697 0.048099484 0.27366862 -0.020995209
0001f0 ca 65 7f bd 1b 5e 4e be 69 95 ab bd fd e8 9f 3e
       -0.062352933 -0.20153086 -0.08378107 0.31232443

action_net.bias f4 [2]
000000 44 71 d9 3d 0a b8 47 bd
       0.10617307 -0.048759498
