onnx/selected_policy.onnx (onnx, 24270 bytes, 6 tensors)

mlp_extractor.policy_net.0.weight f4 [64, 20]
-0.056735925 -0.22125655 -0.17281282 0.16450444 -0.037102908 0.15766796 -0.22322403 -0.24288382
-0.17780747 -0.22014917 -0.1980445 0.3488425 0.20780934 -0.054604787 -0.16333249 -0.12707819
-0.054180373 0.06596043 -0.31949222 0.15443794 -0.12599999 0.010195901 0.020888334 -0.10629267
0.15062736 0.008275096 -0.09957896 -0.26290175 -0.021174729 0.19107284 0.45135614 -0.30382842
-0.146912 0.10522564 0.10548517 -0.14113835 0.19164017 0.2928302 -0.16706678 -0.23472574
-0.15910603 0.0072333147 -0.041742355 -0.20927155 0.17955181 -0.038828798 -0.21606146 0.13677552
-0.13324773 0.0031759343 -0.2530152 0.087674536 0.060452048 0.33102274 -0.27573347 0.25800973
-0.12166942 -0.014910316 -0.33291605 0.04966317 0.018191451 0.012526984 0.02505377 -0.09504928
0.09393958 0.023274856 -0.040963754 -0.31138432 -0.018677182 0.014393661 0.215931 -0.055430457
0.18851835 0.1440036 -0.3283633 0.3526958 0.016442817 -0.11936678 -0.22379279 0.045865007
0.13733843 0.30790055 -0.19868597 0.08747938 -0.14546889 -0.024882853 0.072843745 0.15527344
-0.47724834 -0.31750447 0.14949876 -0.1076304 0.27409273 -0.107827984 0.3524011 0.052503012
-0.07960291 -0.23859449 0.17829609 -0.16470219 -0.119318575 -0.08103728 -0.4124569 -0.37085786
-0.22999488 -0.034041192 0.046370916 0.099385105 0.100416966 -0.15238526 0.08460817 -0.115773566
-0.047194894 0.029697256 -0.063310534 -0.0017285396 0.014038807 0.046538286 -0.14845838 -0.18736662
-0.16656049 0.07783903 0.044237666 0.020596908 -0.10907175 -0.13470568 0.07595351 -0.014756418
0.19835171 0.32132956 0.18872122 0.385386 0.0979605 -0.17892915 -0.21730669 -0.2437115
0.099615626 -0.008870294 -0.037235852 0.1433965 0.048951227 -0.11928107 0.21845694 0.13273293
0.060735483 0.15621999 0.30542773 -0.115230136 0.207119 -0.08547605 -0.07502269 0.17064235
-0.33977878 0.23594998 0.17294069 0.2645847 0.1680095 -0.15825376 0.11397565 -0.009677951
-0.01857793 -0.08172429 -0.3491362 -0.35553008 0.20373954 -0.18949586 0.13326152 0.12989552
-0.20581955 0.24959742 0.09521979 0.16222219 -0.025541687 -0.026113786 0.26234528 0.04579921
-0.11541727 -0.17173329 0.3778258 -0.32774764 0.063137814 -0.24913198 0.016749697 -0.004082681
-0.08392064 0.26941243 -0.19897288 -0.04054596 0.3469509 0.23629367 0.04316694 0.08006452
0.34732896 0.20121813 0.111610025 0.041053697 -0.3177905 -0.03250075 0.023473373 -0.0035253738
0.1109107 -0.023659457 0.02761932 0.004960077 -0.40171108 0.002365234 -0.054586105 0.10836525
0.039857395 -0.10076997 -0.18425179 0.03617099 -0.10700722 0.2795811 -0.3260038 -0.19938596
-0.30784014 -0.21324341 -0.10628704 -0.365505 -0.27362543 -0.0572257 0.334635 -0.028401483
-0.14833695 0.19983307 -0.317461 0.13315307 -0.07749197 0.02892615 -0.24757195 -0.24303657
0.14990492 -0.14396031 0.08222395 0.11380053 -0.21744838 -0.15741257 0.2616444 0.20525053
-0.05009029 -0.18815583 -0.16715464 -0.1560862 0.21430336 -0.009187956 -0.08736808 0.1203469
-0.13959892 -0.11759634 0.4676169 -0.012941783 0.04235126 -0.15699562 0.19035117 -0.18360518
00000000: ee63 68bd 1491 62be d8f5 30be da73 283e
00000010: 38f9 17bd b673 213e d794 64be 89b6 78be
00000020: 2913 36be c96e 61be 2dcc 4abe 7c9b b23e
00000030: f9cb 543e 45a9 5fbd a240 27be c920 02be
00000040: 3dec 5dbd 4316 873d 7c94 a3be fb24 1e3e
00000050: 2406 01be b50c 273c 031e ab3c f9af d9bd
00000060: 0f3e 1a3e 4594 073c 0ef0 cbbd 0f9b 86be
00000070: a076 adbc 99a8 433e 2718 e73e 668f 9bbe
00000080: 1970 16be 8a80 d73d 9c08 d83d 9286 10be
00000090: 523d 443e d7ed 953e 8e13 2bbe f25b 70be
000000a0: b1ec 22be 7105 ed3b 08fa 2abd 484b 56be
000000b0: 6edc 373e f20a 1fbd 373f 5dbe e20e 0c3e
000000c0: 1872 08be 5623 503b 358b 81be b58e b33d
000000d0: 919c 773d d07b a93e f02c 8dbe da19 843e
000000e0: d12d f9bd 664a 74bc f973 aabe 9c6b 4b3d
000000f0: 3d06 953c fb3d 4d3c 903d cd3c 32a9 c2bd
00000100: 6563 c03d e9aa be3c 9cc9 27bd c46d 9fbe
00000110: e400 99bc 64d3 6b3c 041d 5d3e 0c0b 63bd
00000120: f40a 413e ae75 133e 3c1f a8be 8b94 b43e
00000130: 16b3 863c 9276 f4bd f029 65be f2dc 3b3d
00000140: 72a2 0c3e 24a5 9d3e 5674 4bbe 6428 b33d
00000150: ccf5 14be 20d7 cbbc 1a2f 953d 0000 1f3e
00000160: e559 f4be f28f a2be 3416 193e 546d dcbd
00000170: e255 8c3e ebd4 dcbd eb6d b43e 660d 573d
00000180: da06 a3bd 1d52 74be 4093 363e b1a7 28be
00000190: 4c5d f4bd e0f6 a5bd 8d2d d3be 15e1 bdbe
000001a0: c783 6bbe c76e 0bbd 6eef 3d3d 6b8a cb3d
000001b0: 69a7 cd3d e20a 1cbe 0c47 ad3d b11a edbd
000001c0: 6f4f 41bd a947 f33c f4a8 81bd 2a90 e2ba
000001d0: 0603 663c ee9e 3e3d 7905 18be 09dd 3fbe
000001e0: d58e 2abe 126a 9f3d 8e32 353d d9ba a83c
000001f0: 0261 dfbd 49f0 09be 848d 9b3d e7c4 71bc
00000200: b61c 4b3e 4f85 a43e 2340 413e 5051 c53e
00000210: 849f c83d 3439 37be a585 5ebe 828f 79be
00000220: 4703 cc3d b654 11bc 9f84 18bd 88d6 123e
00000230: 1581 483d a249 f4bd 2db3 5f3e 24eb 073e
00000240: c5c5 783d 22f8 1f3e 0661 9c3e c7fd ebbd
00000250: 0117 543e 110e afbd 7fa5 99bd debc 2e3e
00000260: 7cf7 adbe df9c 713e 5d17 313e a577 873e
00000270: af0a 2c3e 460d 22be 116c e93d 4590 1ebc
00000280: be30 98bc 115f a7bd fbc1 b2be 0a08 b6be
00000290: 19a1 503e 340b 42be b575 083e 5503 053e
000002a0: 5cc2 52be 7796 7f3e 9802 c33d 931d 263e
000002b0: cd3c d1bc 94ec d5bc 1f52 863e f497 3b3d
000002c0: e45f ecbd dada 2fbe 6272 c13e 8ace a7be
000002d0: 664e 813d 741c 7fbe a936 893c 03c8 85bb
000002e0: 96de abbd 6df0 893e 8cbf 4bbe 8513 26bd
000002f0: 8ca3 b13e f8f6 713e d1cf 303d def8 a33d
00000300: 1ad5 b13e 200c 4e3e cc93 e43d ec27 283d
00000310: 70b5 a2be 821f 05bd 3b4b c03c f509 67bb
00000320: 2625 e33d 7ad1 c1bc ea41 e23c 2488 a23b
00000330: 13ad cdbe 0b02 1b3b ae95 5fbd 9aee dd3d
00000340: 8241 233d 7c60 cebd 80ac 3cbe 0828 143d
00000350: 9a26 dbbd 4125 8f3e f8e9 a6be d52b 4cbe
00000360: 399d 9dbe 7b5c 5abe 05ad d9bd 7923 bbbe
00000370: a218 8cbe 7f65 6abd 4755 ab3e 3aaa e8bc
00000380: a4e5 17be 0aa1 4c3e 408a a2be 4759 083e
00000390: 1cb4 9ebd 89f6 ec3c 8083 7dbe 94de 78be
000003a0: ad80 193e 556a 13be 0865 a83d 4110 e93d
000003b0: caaa 5ebe c330 21be 41f6 853e 322d 523e
000003c0: 7a2b 4dbd ecab 40be 962a 2bbe 10d5 1fbe
000003d0: 5772 5b3e 1589 16bc 09ee b2bd 6f78 f63d
000003e0: 05f3 0ebe 5ad6 f0bd 7b6b ef3e c609 54bc
000003f0: 8478 2d3d 76c3 20be 6beb 423e ff02 3cbe

mlp_extractor.policy_net.0.bias f4 [64]
0.035013985 -0.049445227 0.048027545 0.022085704 -0.039150164 -0.046723973 0.020933188 -0.016825369
-0.04412078 0.02500472 -0.04336946 0.020554416 -0.001945739 -0.028325979 0.022292932 -0.06617774
-0.012892875 -0.025450142 0.019218875 0.0514033 0.018846191 -0.0033427018 0.0474613 -0.017958568
0.019350003 -0.014590714 -0.026966577 0.007765683 0.053443853 -0.04090423 0.029341755 0.034607228
0.0391141 -0.005213045 0.007443588 0.019710422 -0.035671093 0.047059055 0.0045192507 0.037062965
-0.00976643 0.07852447 0.06849135 -0.019542253 -0.04722025 -0.045517102 0.02934499 0.058241513
-0.011711171 0.05607087 -0.014677319 0.043962635 -0.042219568 -0.030020952 -0.030835286 0.005405006
-0.042424634 -0.013588738 0.057030972 -0.0026674827 -0.034701135 -0.042575885 -0.015251655 -0.0062963776
00000000: d36a 0f3d 1487 4abd 88b8 443d 14ed b43c
00000010: ec5b 20bd a361 3fbd 147c ab3c 5bd5 89bc
00000020: feb7 34bd b3d6 cc3c 2da4 31bd bc61 a83c
00000030: 2b08 ffba e20b e8bc ab9f b63c 3288 87bd
00000040: a33c 53bc d17c d0bc e770 9d3c 448c 523d
00000050: 5463 9a3c 3b11 5bbb c866 423d d91d 93bc
00000060: e683 9e3c e40d 6fbc 03e9 dcbc 4577 fe3b
00000070: f1e7 5a3d 328b 27bd 1f5e f03c 4fc0 0d3d
00000080: 1b36 203d 31d2 aabb 58e9 f33b c077 a13c
00000090: da1b 12bd ffc0 403d 3916 943b 56cf 173d
000000a0: 6003 20bc 70d1 a03d 3145 8c3d 1317 a0bc
000000b0: 056a 41bd 2470 3abd e864 f03c a78e 6e3d
000000c0: 36e0 3fbc 92aa 653d 2379 70bc 2a12 343d
000000d0: 6dee 2cbd 80ee f5bc 489a fcbc 7a1c b13b
000000e0: 74c5 2dbd 4ca3 5ebc 4f99 693d efd0 2ebb
000000f0: c722 0ebd 0d64 2ebd 14e2 79bc d851 cebb

mlp_extractor.policy_net.2.weight f4 [64, 64]
-0.23167193 0.10326596 -0.22445844 -0.20874876 0.04368436 0.56756055 0.10416175 -0.045174994
0.34469828 0.24675497 0.08819625 0.16446526 0.011463599 0.33700117 -0.14095578 -0.23752755
0.15735184 -0.12622714 -0.19158937 -0.14211673 -0.019735275 -0.0040849554 -0.14339083 0.059265222
0.17892553 0.03519835 -0.006362736 0.069005586 -0.10918062 -0.012120192 -0.31535283 0.13728188
0.18750323 0.14929669 0.054072887 -0.18163814 0.107747816 0.25812846 -0.1372444 -0.048448637
0.25345582 0.18546616 -0.35807467 0.12887393 0.022310065 0.2732567 0.18548149 0.20994098
0.4606508 0.08590317 -0.051728424 0.05345682 0.17856145 -0.059784144 -0.13000709 0.20032807
-0.04223692 0.014484306 0.12021689 0.16088437 -0.13707751 -0.109437115 0.013976538 0.04300258
0.09610078 0.24195825 -0.1584255 -0.2111677 -0.040899977 -0.25659186 -0.21837358 -0.14346656
-0.16575012 0.064434744 0.34838465 -0.04155501 0.03885595 0.018550519 -0.40484586 -0.07575925
-0.035544984 -0.17220597 0.22685571 0.017199185 0.21064596 0.4730809 -0.11914713 -0.10434838
-0.14956151 -0.0067230794 -0.32579523 0.17532553 0.12680824 0.14465255 0.046611063 0.039002426
-0.036645744 -0.056239095 0.07037179 -0.07467582 0.008665819 0.26860562 -0.43026686 0.2657644
-0.048953887 -0.024669947 0.056039598 0.013693819 0.12708354 0.057616036 0.0022531778 -0.26890388
0.23096287 -0.00036349456 -0.0708911 -0.015899172 -0.31393164 -0.096059605 0.08465186 -0.11240836
0.24757884 -0.09197609 -0.071350746 0.18883038 0.2483053 -0.044749275 0.24015267 -0.06618431
-0.07190696 -0.24334618 0.3701933 0.18317986 -0.104754776 0.045426216 -0.28364882 -0.32674655
0.08361628 0.019761335 -0.0981607 0.15985177 0.1373146 -0.010681658 -0.2767716 0.010679253
0.3678093 -0.1278237 0.032677308 0.04302134 -0.27048308 -0.107162975 0.24866946 0.30925775
0.16569068 -0.30972984 -0.03612996 -0.021694792 0.29349965 0.14034963 0.1349607 0.029325984
0.20218635 -0.13178244 0.273599 0.17224455 0.10783477 0.09178765 0.13309492 0.13419735
-0.11865981 -0.15988714 0.22255655 0.1162884 0.013052669 -0.047131445 0.08678763 -0.09975932
-0.13302922 0.34820712 -0.18977126 0.025070399 0.19958021 0.010725515 -0.12958871 0.0015999984
0.28192714 -0.2992098 -0.019692985 0.2072726 -0.050658416 -0.09553875 -0.0038797047 -0.1868411
-0.13184193 0.29127645 -0.20025802 0.0681582 0.21855609 -0.036788 -0.2902817 -0.103253014
-0.4447687 -0.10968315 -0.1063816 -0.07504557 -0.22850601 -0.32714173 -0.1485082 -0.08413926
-0.18339652 -0.09218339 0.0012448363 0.22584003 -0.16411221 -0.12324675 -0.06297252 -0.06170503
0.34865427 0.11563177 -0.11738619 -0.012757875 0.1847805 0.12632205 -0.13112001 0.10631695
-0.20025152 -0.14370817 -0.020507488 0.08579755 0.12962651 0.018999187 0.059106395 -0.2047705
-0.08666582 0.07245309 0.0128703425 -0.081982255 -0.2267905 0.23609336 -0.43131453 0.26113963
-0.10524374 0.055938784 0.09043481 -0.024104362 0.23984164 0.037789546 -0.16769257 0.10125665
-0.24203402 -0.09323051 0.028477542 0.4224761 -0.08112586 0.03521363 0.23691083 -0.11866052
00000000: 683b 6dbe 1b7d d33d 6fd8 65be 3cc2 55be
00000010: 5fee 323d a64b 113f c152 d53d 6a09 39bd
00000020: 4b7c b03e 56ad 7c3e 3ca0 b43d 9569 283e
00000030: d2d1 3b3c 6b8b ac3e b656 10be 6c3a 73be
00000040: d720 213e b041 01be 0130 44be 0c87 11be
00000050: dfab a1bc 17db 85bb 0cd5 12be 17c0 723d
00000060: 4138 373e 252c 103d 807e d0bb cd52 8d3d
00000070: 179a dfbd c593 46bc ed75 a1be 9f93 0c3e
00000080: d900 403e 3be1 183e 887b 5d3d 59ff 39be
00000090: e3aa dc3d 6a29 843e cc89 0cbe 1472 46bd
000000a0: f6c4 813e d7ea 3d3e 9055 b7be 87f7 033e
000000b0: 99c3 b63c 4de8 8b3e dcee 3d3e c5fa 563e
000000c0: 6cda eb3e 00ee af3d 2fe1 53bd 8af5 5a3d
000000d0: d0d8 363e 38e0 74bd 9420 05be cd22 4d3e
000000e0: 9f00 2dbd 954f 6d3c 4634 f63d dfbe 243e
000000f0: 0c5e 0cbe 9120 e0bd d9fd 643c 7923 303d
00000100: 7cd0 c43d e7c3 773e 4b3a 22be 583c 58be
00000110: bc86 27bd 0260 83be 539d 5fbe e6e8 12be
00000120: 66ba 29be 5df6 833d 795f b23e 9635 2abd
00000130: 6b27 1f3d 42f7 973c f547 cfbe aa27 9bbd
00000140: 9e97 11bd c356 30be dd4c 683e 4ee5 8c3c
00000150: 93b3 573e a937 f23e 6903 f4bd 9ab4 d5bd
00000160: a726 19be 474d dcbb a2ce a6be 8988 333e
00000170: 05da 013e cc1f 143e 3eeb 3e3d 02c1 1f3d
00000180: d919 16bd f75a 66bd 161f 903d a3ef 98bd
00000190: 14fb 0d3c ad86 893e f04b dcbe 4512 883e
000001a0: df83 48bd a118 cabc c789 653d 0a5c 603c
000001b0: 3022 023e cbfe 6b3d 0daa 133b c5ad 89be
000001c0: 8881 6c3e 6a93 beb9 5a2f 91bd fb3e 82bc
000001d0: a6bb a0be e6ba c4bd f45d ad3d 5b36 e6bd
000001e0: 4f85 7d3e f65d bcbd 5720 92bd c05c 413e
000001f0: bf43 7e3e 044b 37bd 95ea 753e a48b 87bd
00000200: f543 93bd be2f 79be fa89 bd3e 8093 3b3e
00000210: ac89 d6bd d710 3a3d 6b3a 91be 534b a7be
00000220: 033f ab3d 86e2 a13c 7a08 c9bd 2fb0 233e
00000230: 339c 0c3e 1f02 2fbc 02b5 8dbe 09f8 2e3c
00000240: 8051 bc3e 37e4 02be a4d8 053d 2537 303d
00000250: c27c 8abe 4378 dbbd 35a3 7e3e 0857 9e3e
00000260: d1aa 293e e994 9ebe 02fd 13bd 47b9 b1bc
00000270: 9645 963e d0b7 0f3e 2333 0a3e 0c3d f03c
00000280: f009 4f3e faf1 06be 2b15 8c3e e060 303e
00000290: 7ad8 dc3d 2afb bb3d 094a 083e 086b 093e
000002a0: ea03 f3bd 74b9 23be dde5 633e 9d28 ee3d
000002b0: ddda 553c e70c 41bd b7bd b13d 9d4e ccbd
000002c0: d038 08be 3448 b23e 6653 42be 7060 cd3c
000002d0: c15e 4c3e 12ba 2f3c e7b2 04be 0ab7 d13a
000002e0: c158 903e 0732 99be 2f53 a1bc 453f 543e
000002f0: 337f 4fbd d2a9 c3bd a542 7ebb 4653 3fbe
00000300: 9201 07be 3022 953e 7010 4dbe 8796 8b3d
00000310: 2bcd 5f3e 04af 16bd ce9f 94be 5176 d3bd
00000320: b9b8 e3be 8fa1 e0bd 99de d9bd 7eb1 99bd
00000330: 7bfd 69be 1f7f a7be 8912 18be 3451 acbd
00000340: 4ccc 3bbe a5ca bcbd c629 a33a 9c42 673e
00000350: 080d 28be cb68 fcbd bdf7 80bd 6abe 7cbd
00000360: d082 b23e 59d0 ec3d 2c68 f0bd 6806 51bc
00000370: 1937 3d3e 915a 013e 5344 06be b3bc d93d
00000380: bc0e 4dbe 3c28 13be 52ff a7bc a0b6 af3d
00000390: d0bc 043e 2fa4 9b3c 8c19 723d 5caf 51be
000003a0: d97d b1bd 4962 943d 21de 523c 50e6 a7bd
000003b0: c53b 68be 75c2 713e 42d5 dcbe 18b4 853e
000003c0: 088a d7bd 1120 653d e335 b93d 8376 c5bc
000003d0: 0c99 753e 36c9 1a3d 9ab7 2bbe a65f cf3d
000003e0: c4d7 77be a3ef bebd bc49 e93c ca4e d83e
000003f0: 5125 a6bd 2b3c 103d c198 723e 4904 f3bd

mlp_extractor.policy_net.2.bias f4 [64]
-0.0055806115 -0.030171685 0.014962398 0.025041476 -0.013585307 -0.031591743 -0.036472507 0.032124676
-0.033339832 0.0014245487 0.037630364 -0.004271546 0.029834023 0.048715863 -0.006135252 0.028991917
0.02908044 0.037417833 -0.027433384 -0.0005431465 -0.048846263 0.06960224 0.019583892 0.033704937
0.02629103 -0.038395546 -0.01663529 -0.031455446 -0.034541786 0.011918649 -0.042575385 0.016568545
0.00013354639 0.011569174 0.029693317 0.055305284 0.027280457 0.006786308 -0.049218044 -0.026158057
-0.0385238 0.035576355 0.04824732 -0.039793834 -0.04424452 -0.038595863 0.02212563 -0.035460588
-0.049835097 0.0054226117 -0.02434439 -0.036895324 0.024727536 -0.033711337 0.04651065 -0.052852143
-0.034578636 0.04047009 -0.047466256 -0.014794028 -0.035865314 -0.014577481 -0.029411547 -0.04057028
00000000: 90dd b6bb 9c2a f7bc d924 753c c823 cd3c
00000010: e894 5ebc 5866 01bd 3264 15bd 2a95 033d
00000020: 598f 08bd ecb7 ba3a 4c22 1a3d 53f8 8bbb
00000030: 7b66 f43c 498a 473d 390a c9bb 7580 ed3c
00000040: 1a3a ee3c 7143 193d fabb e0bc f261 0eba
00000050: 0513 48bd 9f8b 8e3d 666e a03c 300e 0a3d
00000060: 4960 d73c a644 1dbd bb46 88bc 6dd7 00bd
00000070: b07b 0dbd 7046 433c 8763 2ebd c2ba 873c
00000080: 9608 0c39 a28c 3d3c 663f f33c cb87 623d
00000090: 447b df3c ad5f de3b dc98 49bd 6c49 d6bc
000000a0: 22cb 1dbd 83b8 113d fb9e 453d dcfe 22bd
000000b0: be39 35bd b216 1ebd cf40 b53c 1f3f 11bd
000000c0: e31f 4cbd 2ab0 b13b e36d c7bc 8d1f 17bd
000000d0: 6791 ca3c e614 0abd f481 3e3d 7d7b 58bd
000000e0: 54a2 0dbd f7c3 253d fa6b 42bd a762 72bc
000000f0: 82e7 12bd 63d6 6ebc 7cf0 f0bc 062d 26bd

action_net.weight f4 [2, 64]
0.25188118 -0.015699374 -0.12855205 -0.09470314 0.29105812 -0.028531117 0.09389964 -0.25378916
0.06830292 -0.079192005 -0.0017452524 0.039663937 0.09482933 -0.053092595 0.33031675 -0.0005155566
-0.11696951 -0.29969183 0.21871375 -0.14850241 0.104686685 -0.19393949 -0.13249093 0.04853392
0.08254849 0.31820953 0.16286728 0.027783342 0.040113993 0.0501403 0.043248784 -0.06940782
0.13908511 0.16685796 -0.009172753 -0.07999652 -0.034452025 -0.29554784 0.22566067 0.0046032136
-0.030069638 -0.037132274 -0.034401573 -0.03580576 -0.027647391 0.048064232 0.061658543 0.06338314
0.06601962 0.22392851 0.3269013 0.008043359 0.058117013 0.42953274 -0.008233293 0.0698745
0.036638904 0.011992557 0.034958664 0.039690215 0.021113908 0.24267267 0.031748716 0.040917214
0.11248851 -0.12404845 -0.049514975 0.055027183 0.029573612 -0.09283091 -0.14960462 -0.09722655
-0.11632779 -0.05895476 0.17347005 0.058634844 0.09642231 0.18579239 -0.015769968 0.17378473
0.07084014 0.15819268 -0.01865216 -0.14583196 -0.1697163 0.15629098 -0.053200718 0.13328768
0.12987623 0.030076656 -0.011517319 -0.11931347 -0.18253495 0.15875524 -0.12427526 -0.03391962
0.07763201 0.08825465 0.18347825 0.13251303 0.17540258 0.04933278 -0.08163905 -0.17805259
-0.16526242 0.14082068 0.1442246 -0.16331019 -0.13611248 -0.17855959 0.1446189 -0.17808822
-0.14462341 0.09620707 0.060064115 -0.17188406 0.12923689 -0.053847674 0.13705415 -0.13855499
-0.16060387 0.1668548 -0.13985504 -0.010384616 -0.17350872 0.0058855345 -0.18225686 -0.12718873
00000000: 92f6 803e f99b 80bc 26a3 03be b8f3 c1bd
00000010: 9205 953e 17ba e9bc 744e c03d a7f0 81be
00000020: 67e2 8b3d 6b2f a2bd f4c0 e4ba a776 223d
00000030: e135 c23d 9f77 59bd 471f a93e 6b26 07ba
00000040: b68d efbd 3571 99be 7ff6 5f3e 0411 18be
00000050: f965 d63d 1398 46be b4ab 07be 81cb 463d
00000060: 2f0f a93d 5cec a23e aec6 263e e499 e33c
00000070: 924e 243d ea5f 4d3d a325 313d b025 8ebd
00000080: 546c 0e3e d0dc 2a3e 5149 16bc 37d5 a3bd
00000090: 911d 0dbd 0c52 97be 9713 673e 8ed6 963b
000000a0: 9a54 f6bc 0318 18bd aae8 0cbd 10a9 12bd
000000b0: c87c e2bc 00df 443d ab8d 7c3d 05cf 813d
000000c0: 4b35 873d 844d 653e 9b5f a73e 4bc8 033c
000000d0: 1b0c 6e3d b7eb db3e efe4 06bc 5d1a 8f3d
000000e0: ad12 163d 6e7c 443c d130 0f3d 3592 223d
000000f0: 13f7 ac3c 2f7f 783e f10a 023d cf98 273d
00000100: 6060 e63d 1d0d febd 37d0 4abd 2f64 613d
00000110: 5c44 f23c 221e bebd f431 19be b71e c7bd
00000120: 443d eebd 8c7a 71bd 22a2 313e 172b 703d
00000130: 0f79 c53d 5c40 3e3e 0530 81bc a0f4 313e
00000140: a314 913d 43fd 213e 6acc 98bc f954 15be
00000150: 1cca 2dbe be0a 203e ffe8 59bd 917c 083e
00000160: 46fe 043e 5263 f63c 23b3 3cbc 9f5a f4bd
00000170: 71ea 3abe bc90 223e 0784 febd 4def 0abd
00000180: 88fd 9e3d dbbe b43d b9e1 3b3e 7fb1 073e
00000190: bc9c 333e 2b11 4a3d 6032 a7bd 6b53 36be
000001a0: 8d3a 29be 4c33 103e 9daf 133e c93a 27be
000001b0: 1261 0bbe 53d8 36be fa16 143e c25c 36be
000001c0: 2918 14be 3608 c53d ca05 763d 6002 30be
000001d0: ad56 043e 618f 5cbd ec57 0c3e 5ce1 0dbe
000001e0: 5775 24be fcdb 2a3e 2936 0fbe 3d24 2abc
000001f0: 45ac 31be 71db c03b 8ba1 3abe c33d 02be

action_net.bias f4 [2]
-0.060570378 0.18474965
00000000: a518 78bd 032f 3d3e
